…
{'epoch': 9, 'batch': 510, 'loss': 0.0950947031378746}
{'epoch': 9, 'batch': 540, 'loss': 0.044210150837898254}
{'epoch': 9, 'batch': 570, 'loss': 0.09002432227134705}
{'epoch': 9, 'batch': 600, 'loss': 0.10062284022569656}
{'TEST!': 9, 'batch': 0, 'loss': 0.023337487131357193}
{'TEST!': 9, 'batch': 30, 'loss': 0.05987580865621567}
{'TEST!': 9, 'batch': 60, 'loss': 0.03965016081929207}
{'TEST!': 9, 'batch': 90, 'loss': 0.12355376780033112}
{'TEST!': 9, 'batch': 120, 'loss': 0.09054755419492722}
{'TEST!': 9, 'batch': 150, 'loss': 0.03576451539993286}
{'TEST!': 9, 'batch': 180, 'loss': 0.014238216914236546}
Attentive_model(
  (embedding): Embedding(1360, 1024)
  (selfattn1): AttentionBlock(
    (key_gen): Sequential(
      (0): Linear(in_features=18, out_features=80, bias=True)
      (1): ReLU()
      (2): Linear(in_features=80, out_features=80, bias=True)
      (3): ReLU()
      (4): Linear(in_features=80, out_features=1024, bias=True)
      (5): ReLU()
    )
    (val_gen): Sequential(
      (0): Linear(in_features=1024, out_features=80, bias=True)
      (1): ReLU()
      (2): Linear(in_features=80, out_features=80, bias=True)
      (3): ReLU()
      (4): Linear(in_features=80, out_features=1024, bias=True)
      (5): ReLU()
    )
    (query_gen): Sequential(
      (0): Linear(in_features=18, out_features=80, bias=True)
      (1): ReLU()
      (2): Linear(in_features=80, out_features=80, bias=True)
      (3): ReLU()
      (4): Linear(in_features=80, out_features=1024, bias=True)
      (5): Softmax(dim=-1)
    )
    (multihead_attn): MultiheadAttention(
      (out_proj): NonDynamicallyQuantizableLinear(in_features=1024, out_features=1024, bias=True)
    )
  )
  (rel): ReLU()
  (fc_1): Linear(in_features=1024, out_features=1024, bias=True)
  (fc_regr): Linear(in_features=1024, out_features=1, bias=True)
)
[34m[1mwandb[39m[22m: Currently logged in as: [33mharadai[39m. Use [1m`wandb login --relogin`[22m to force relogin